models/tinybert/1/model.onnx (onnx, 378435 bytes, 38 tensors)

bert.embeddings.token_type_embeddings.weight f4 [16, 32]
0.011881317 -0.025909817 -0.006121998 0.002051687 0.0020423976 0.012668419 -0.014430179 0.002940718
-0.024583215 0.014379605 0.010997454 0.011273459 0.0024320774 0.017728893 -0.0042789034 0.0018772371
-0.011560599 -0.03761461 0.00012107135 0.008912499 0.0025206967 0.0026890752 -0.012719538 0.014047245
0.008071416 0.01895228 -0.0020341023 0.009211299 0.008430237 -0.016427515 -0.030647343 -0.011561064
0.033945628 0.028371258 -0.022722507 0.010444884 0.0009733713 -0.0008572816 0.0030191918 -0.015056289
-0.0061780107 -0.015906693 -0.009147214 -0.010621486 0.046882782 0.02252264 -0.0056067514 0.03593682
0.007637004 -0.012450991 0.0125449635 -0.041050714 -0.02210921 -0.009516615 -0.009641155 -0.015780084
0.0017320707 0.034902617 0.012390948 0.03677225 -0.032785706 -0.012172274 -0.016244344 0.00923839
0.0054640025 0.025583016 0.020321975 -0.011481596 0.016075982 -0.02745339 -0.04885287 -0.007693462
-0.00567899 0.010754347 -0.0059335125 0.014383685 -0.008407539 0.01853122 -0.00036615977 0.012431215
0.015562963 -0.022997042 -0.022811877 0.02273513 -0.012335608 -0.013080959 -0.020005515 -0.018232394
0.004712853 0.00794969 0.01857291 -0.006336395 -0.007882625 -0.018208109 0.0346358 -6.850971e-05
-0.006727529 0.0040915012 0.032464482 -0.033253755 0.0017040923 0.0013415114 0.013450138 -0.020583384
-0.021985127 0.018275827 0.039837316 0.022118337 0.04536575 -0.04290979 0.0006861887 -0.026703957
0.028598133 -0.0034916112 0.0013177448 -0.021059792 -0.01138503 0.0026984862 0.016780578 -0.027886033
0.02114611 0.0034523243 0.021412946 0.01351203 -0.003322132 -0.01955132 0.0048176167 -0.02738684
0.0039491234 0.019396773 0.013602925 0.018490281 -0.011858423 0.022616617 -0.0151073355 -0.05863242
0.014025055 0.0038940047 -0.03316462 0.021292876 0.03037195 0.01338238 0.014369966 0.021263728
0.02270668 0.018222522 -0.026913518 -0.021040274 0.0100607155 -0.0059623197 0.00044811788 -0.0027149066
-0.019424764 -0.01862012 0.009719259 -0.02896025 -0.009508974 0.0073461286 -0.008876501 -0.0062420983
0.0034986353 0.008753371 0.0059570423 0.006276005 -0.021057576 -0.002751635 -0.017478937 -0.0012174435
0.005650422 -0.022135058 0.025748529 -0.025315152 0.015117637 0.0036667364 -0.0068919603 0.016144618
-0.00986145 0.015653523 0.019348823 -0.019218074 0.027104408 0.0048424155 0.027854292 0.00021738872
0.05777285 -0.04220794 -0.0058266013 -0.008710009 -0.003636508 -0.019188521 0.010215468 0.0066772676
-0.0043960717 -0.025864022 0.0028342966 0.0011213593 -0.018514745 0.010686876 0.035871875 0.018397145
0.03750229 -0.010776634 0.007858373 0.0010632002 0.028909668 -0.014345809 0.017481586 -0.015490321
-0.008910358 -0.024048349 0.02578344 -0.004710823 -0.031848438 -0.016108695 0.04433097 0.02530524
-0.03375111 0.0050192922 0.008297983 -0.011683179 0.022512829 0.013155104 0.021040639 0.024967901
0.008309136 -0.013083459 0.038456585 0.003590238 0.0054033166 0.0021067103 -0.014286468 0.011477313
-0.0056208572 0.05694575 -0.012090105 0.024004685 0.0155340955 -0.0167467 -0.03568487 0.007920676
-0.00863038 0.0004960156 0.0068794065 0.028078157 0.045131326 -0.0004521726 0.04381286 -0.007750705
0.0033806926 0.006510164 0.0077160904 0.03097369 0.0042308993 -0.0111243855 -0.013964825 0.028896002
00000000: dba9 423c d340 d4bc 0b9b c8bb 9975 063b
00000010: bfd9 053b 338f 4f3c 8f6c 6cbc 10b9 403b
00000020: bd62 c9bc 6f98 6b3c aa2e 343c 50b4 383c
00000030: 7d63 1f3b 2f3c 913c 0b36 8cbb a00d f63a
00000040: ab68 3dbc c711 1abd b0e7 fd38 bb05 123c
00000050: 4632 253b 323b 303b 9c65 50bc 6a26 663c
00000060: f93d 043c d041 9b3c 934e 05bb fdea 163c
00000070: fa1e 0a3c ff92 86bc 2310 fbbc 9e6a 3dbc
00000080: 920a 0b3d d76a e83c 8d24 babc 0521 2b3c
00000090: d829 7f3a 32bb 60ba a2dd 453b a7ae 76bc
000000a0: e970 cabb c14e 82bc 32de 15bc be05 2ebc
000000b0: 2908 403d 6681 b83c d7b8 b7bb 7d32 133d
000000c0: d53f fa3b 3eff 4bbc 6489 4d3c cb24 28bd
000000d0: 601e b5bc 94eb 1bbc eff5 1dbc 3c45 81bc
000000e0: a606 e33a 0cf6 0e3d 6703 4b3c 809e 163d
000000f0: 4e4a 06bd 386e 47bc dc12 85bc 9e5c 173c
00000100: 600b b33b 7993 d13c 457a a63c 4e1d 3cbc
00000110: c7b1 833c efe5 e0bc f219 48bd 7019 fcbb
00000120: d216 babb 0033 303c e96d c2bb 8ca9 6b3c
00000130: c6bf 09bc c9ce 973c 22f9 bfb9 4bac 4b3c
00000140: ccfb 7e3c 4b64 bcbc f9df babc 063f ba3c
00000150: 4a1b 4abc 8551 56bc 9be2 a3bc 1a5c 95bc
00000160: 476e 9a3b 6b3f 023c 3726 983c 89a1 cfbb
00000170: 2026 01bc 2c29 95bc 45de 0d3d dfac 8fb8
00000180: 9b72 dcbb 0012 863b 7af9 043d 1735 08bd
00000190: d95b df3a a7d5 af3a f85d 5c3c 7c9e a8bc
000001a0: 271a b4bc 30b7 953c 742c 233d 8431 b53c
000001b0: 70d1 393d 2dc2 2fbd 58e1 333a 42c2 dabc
000001c0: a246 ea3c 84d3 64bb 2eb8 ac3a 9685 acbc
000001d0: 4788 3abc 16d9 303b 6c77 893c 4071 e4bc
000001e0: 9b3a ad3c 6440 623b 346a af3c 9061 5d3c
000001f0: 20b8 59bb 172a a0bc 19dd 9d3b 5e5a e0bc
00000200: a667 813b fbe5 9e3c cede 5e3c ee78 973c
00000210: d549 42bc 7c46 b93c c284 77bc 8c28 70bd
00000220: 58c9 653c 8f32 7f3b a0d7 07bd 666e ae3c
00000230: 98ce f83c c541 5b3c 0270 6b3c 4531 ae3c
00000240: 5c03 ba3c 6647 953c bd79 dcbc a75c acbc
00000250: b3d5 243c 905f c3bb 5df1 ea39 93ec 31bb
00000260: af20 9fbc 3989 98bc 873d 1f3c 0c3e edbc
00000270: 87cb 1bbc cbb7 f03b be6e 11bc 848a ccbb
00000280: 5c49 653b 4d6a 0f3c 4b33 c33b f2a6 cd3b
00000290: f080 acbc c654 34bb fd2f 8fbc a092 9fba
000002a0: 2d27 b93b 9554 b5bc 94ee d23c b961 cfbc
000002b0: f7af 773c a14d 703b f4d5 e1bb b841 843c
000002c0: eb91 21bc d13b 803c 6c81 9e3c 396f 9dbc
000002d0: 100a de3c 20ad 9e3b af2e e43c d7f2 6339
000002e0: 39a3 6c3d 3ce2 2cbd 13ed bebb 6db4 0ebc
000002f0: 7b52 6ebb 3f31 9dbc c75e 273c fbcc da3b
00000300: ec0c 90bb c9e0 d3bc 9bbf 393b 93fa 923a
00000310: 3cac 97bc 0218 2f3c 63ee 123d 9cb5 963c
00000320: 009c 193d 7b90 30bc 68c0 003c 145b 8b3a
00000330: f8d3 ec3c af0a 6bbc 8b35 8f3c 1ecb 7dbc
00000340: c0fc 11bc 0b01 c5bc cb37 d33c 3f5d 9abb
00000350: 8273 02bd 62f6 83bc 6494 353d ef4c cf3c
00000360: 9b3e 0abd e078 a43b 43f4 073c ce6a 3fbc
00000370: d36c b83c 8188 573c 6b5d ac3c 7c89 cc3c
00000380: 0b23 083c 015c 56bc a784 1d3d 334a 6b3b
00000390: 4e0e b13b bc10 0a3b ca11 6abc 570b 3c3c
000003a0: 2b2f b8bb f23f 693d 9315 46bc 79a5 c43c
000003b0: b882 7e3c 6030 89bc 4c2a 12bd b9c5 013c
000003c0: 7066 0dbc 0b07 023a a56c e13b 2a04 e63c
000003d0: a0db 383d 9411 edb9 1d75 333d a0f9 fdbb
000003e0: 9c8e 5d3b 3753 d53b 42d7 fc3b 89bc fd3c
000003f0: 5ba3 8a3b 0e43 36bc b9cc 64bc 4fb7 ec3c

bert.embeddings.LayerNorm.weight f4 [32]
1.0 1.0 1.0 1.0 1.0 1.0 1.0 1.0
1.0 1.0 1.0 1.0 1.0 1.0 1.0 1.0
1.0 1.0 1.0 1.0 1.0 1.0 1.0 1.0
1.0 1.0 1.0 1.0 1.0 1.0 1.0 1.0
00000000: 0000 803f 0000 803f 0000 803f 0000 803f
00000010: 0000 803f 0000 803f 0000 803f 0000 803f
00000020: 0000 803f 0000 803f 0000 803f 0000 803f
00000030: 0000 803f 0000 803f 0000 803f 0000 803f
00000040: 0000 803f 0000 803f 0000 803f 0000 803f
00000050: 0000 803f 0000 803f 0000 803f 0000 803f
00000060: 0000 803f 0000 803f 0000 803f 0000 803f
00000070: 0000 803f 0000 803f 0000 803f 0000 803f

bert.embeddings.LayerNorm.bias f4 [32]
0.0 0.0 0.0 0.0 0.0 0.0 0.0 0.0
0.0 0.0 0.0 0.0 0.0 0.0 0.0 0.0
0.0 0.0 0.0 0.0 0.0 0.0 0.0 0.0
0.0 0.0 0.0 0.0 0.0 0.0 0.0 0.0
00000000: 0000 0000 0000 0000 0000 0000 0000 0000
00000010: 0000 0000 0000 0000 0000 0000 0000 0000
00000020: 0000 0000 0000 0000 0000 0000 0000 0000
00000030: 0000 0000 0000 0000 0000 0000 0000 0000
00000040: 0000 0000 0000 0000 0000 0000 0000 0000
00000050: 0000 0000 0000 0000 0000 0000 0000 0000
00000060: 0000 0000 0000 0000 0000 0000 0000 0000
00000070: 0000 0000 0000 0000 0000 0000 0000 0000

bert.encoder.layer.0.intermediate.dense.bias f4 [37]
0.0 0.0 0.0 0.0 0.0 0.0 0.0 0.0
0.0 0.0 0.0 0.0 0.0 0.0 0.0 0.0
0.0 0.0 0.0 0.0 0.0 0.0 0.0 0.0
0.0 0.0 0.0 0.0 0.0 0.0 0.0 0.0
0.0 0.0 0.0 0.0 0.0
00000000: 0000 0000 0000 0000 0000 0000 0000 0000
00000010: 0000 0000 0000 0000 0000 0000 0000 0000
00000020: 0000 0000 0000 0000 0000 0000 0000 0000
00000030: 0000 0000 0000 0000 0000 0000 0000 0000
00000040: 0000 0000 0000 0000 0000 0000 0000 0000
00000050: 0000 0000 0000 0000 0000 0000 0000 0000
00000060: 0000 0000 0000 0000 0000 0000 0000 0000
00000070: 0000 0000 0000 0000 0000 0000 0000 0000
00000080: 0000 0000 0000 0000 0000 0000 0000 0000
00000090: 0000 0000

classifier.bias f4 [2]
0.0 0.0
00000000: 0000 0000 0000 0000

bert.embeddings.word_embeddings.weight f4 [1124, 32]
0.0 0.0 0.0 0.0 0.0 0.0 0.0 0.0
0.0 0.0 0.0 0.0 0.0 0.0 0.0 0.0
0.0 0.0 0.0 0.0 0.0 0.0 0.0 0.0
0.0 0.0 0.0 0.0 0.0 0.0 0.0 0.0
-0.012864928 0.007156824 0.0008965689 -0.015752379 -0.004945532 0.017653257 -0.012156923 0.009154734
-0.025763495 -0.0052578114 -0.012580711 -0.008161934 0.017840516 0.018861886 0.030326515 0.00218262
0.005954613 -0.019654524 0.023416325 0.024824683 0.00076579733 0.0033692836 0.0030841907 0.004864723
-0.016482258 -0.009252107 -0.0267865 -0.03826783 -0.0064952862 -0.011396587 -0.0053608036 -0.01591653
6.730698e-05 -0.0016716438 0.016387407 0.040628023 -0.044123426 0.011127446 -0.015249275 -0.020785345
-0.0059823208 0.00819455 0.01899054 -0.00057387725 0.019314136 0.033028472 0.001585754 -0.003584466
-0.03615597 0.0004100425 0.017334586 0.0139027 -0.02085125 -0.018752478 0.0028573407 0.035302985
-0.040710166 -0.0115670785 -0.0101595055 -0.024134213 0.0065764254 0.0065610693 0.0006394121 -0.009555593
0.017020196 0.03290621 -0.00015149378 0.0033634468 0.021494832 -0.008212862 -0.018922843 -0.0352222
-0.012636143 0.0048478036 0.03037285 -0.0014021809 0.002297651 0.017311078 -0.017864818 0.0029229228
-0.004861743 0.015776582 -0.030598603 0.06620328 -0.008291908 0.008889588 -0.030985449 -0.03649364
0.022318741 0.021810422 -0.0061318106 -0.013517781 -0.010667089 0.014110367 -0.012347388 0.012373696
-0.0039604264 0.022170404 -0.01171328 0.003518763 0.01440698 -0.013880614 0.0075167995 -0.005581826
-0.02614359 0.012151695 -0.0028501356 0.015855992 0.011853548 -0.010427566 0.0048365495 -0.01931154
0.020472273 0.012938147 0.022760753 -0.0023021929 0.02064012 -0.001830402 0.020016186 -0.0014274467
0.02491736 -0.024719017 -0.02961981 0.010394689 0.03697906 -0.0154310055 -0.021613704 -0.033479877
-0.009134195 0.0026692129 -0.025928857 0.004371077 -0.014611921 -0.009442048 -0.012635509 0.0066719707
-0.0100141615 -0.019180043 -0.020319192 0.0015625007 0.009969268 -0.00362261 -0.012533576 -0.022158157
-0.0213749 0.016295666 0.004053399 0.0070864973 0.032469653 -0.014971821 0.014363988 0.02086307
0.0039487393 0.022622077 -0.023859547 -0.004530122 0.009840294 -0.015640553 -0.012726256 -0.009815289
-0.016404001 0.005226343 -0.01761926 -0.006031473 0.013771625 -0.034740195 -0.008772156 -0.017047858
-0.03332625 -0.0030182493 -9.986745e-06 -0.0131643815 -0.00826041 0.024677398 -0.022166116 -0.021765184
-0.010117854 -0.02796599 0.016380658 0.021794584 0.015514843 0.0023849658 -0.0077140206 -0.015489549
-0.038631234 -0.0031036087 0.029311849 -0.03595551 0.007908404 -0.017829267 -0.01744678 0.018727794
-0.004025345 0.014289428 -0.00262389 0.018578857 -0.0034252752 -0.021953141 0.008229302 0.010632243
-0.0029766718 -0.008749246 0.036986966 -0.030734856 -0.017989984 0.02356026 -0.0371466 -0.027077148
0.018005699 -0.011006611 -0.0027311847 0.00869478 0.0029324272 0.0015877357 -0.013388397 0.00449121
0.006008143 0.0020982227 0.013566149 -0.022732457 -0.019015575 0.01088274 -0.04622206 -0.0014489545
00000000: 0000 0000 0000 0000 0000 0000 0000 0000
00000010: 0000 0000 0000 0000 0000 0000 0000 0000
00000020: 0000 0000 0000 0000 0000 0000 0000 0000
00000030: 0000 0000 0000 0000 0000 0000 0000 0000
00000040: 0000 0000 0000 0000 0000 0000 0000 0000
00000050: 0000 0000 0000 0000 0000 0000 0000 0000
00000060: 0000 0000 0000 0000 0000 0000 0000 0000
00000070: 0000 0000 0000 0000 0000 0000 0000 0000
00000080: 6bc7 52bc cb83 ea3b b807 6b3a 220b 81bc
00000090: 210e a2bb 909d 903c d52d 47bc bdfd 153c
000000a0: f70d d3bc b849 acbb 541f 4ebc a2b9 05bc
000000b0: 4626 923c 3e84 9a3c 506f f83c 4a0a 0f3b
000000c0: ea1e c33b 8602 a1bc 98d3 bf3c 225d cb3c
000000d0: cabf 483a 33cf 5c3b 2220 4a3b 4168 9f3b
000000e0: cd05 87bc 2696 17bc 5d6f dbbc babe 1cbd
000000f0: 69d6 d4bb c0b8 3abc aea9 afbb 6263 82bc
00000100: 2927 8d38 0f1b dbba e23e 863c 9269 263d
00000110: c4ba 34bd e44f 363c 18d8 79bc 0746 aabc
00000120: 5807 c4bb 6f42 063c 0d92 9b3c 4070 16ba
00000130: ae38 9e3c dd48 073d 13d9 cf3a 5ce9 6abb
00000140: 4818 14bd f9fa d639 4301 8e3c 26c8 633c
00000150: 3ed0 aabc cc9e 99bc 3942 3b3b dd99 103d
00000160: b4bf 26bd d883 3dbc 0e74 26bc 1db5 c5bc
00000170: 0e7f d73b 3dfe d63b 389e 273a 108f 1cbc
00000180: f06d 8b3c a9c8 063d 4dda 1eb9 466d 5c3b
00000190: ee15 b03c 3d8f 06bc 1404 9bbc 2745 10bd
000001a0: d307 4fbc 53da 9e3b 7cd0 f83c 62c9 b7ba
000001b0: 3094 163b f6cf 8d3c 3d59 92bc 828e 3f3b
000001c0: 424f 9fbb e43d 813c eca9 fabc 9695 873d
000001d0: c8da 07bc a2a5 113c 32d5 fdbc 5b7a 15bd
000001e0: cbd5 b63c c5ab b23c 5bed c8bb af79 5dbc
000001f0: 04c5 2ebc 2b2f 673c b34c 4abc 0bbb 4a3c
00000200: 77c6 81bb b59e b53c 0fe9 3fbc 0c9b 663b
00000210: 410b 6c3c 846b 63bc 7c4f f63b c0e7 b6bb
00000220: 152b d6bc e717 473c 57c9 3abb 6de4 813c
00000230: 6235 423c 62d8 2abc eb7b 9e3b 3c33 9ebc
00000240: 78b5 a73c 86fa 533c c274 ba3c 63e0 16bb
00000250: 7815 a93c 19ea efba fcf8 a33c 2a19 bbba
00000260: 7e1f cc3c 897f cabc 3ea5 f2bc 7c4e 2a3c
00000270: 5b77 173d 54d2 7cbc 390f b1bc 3222 09bd
00000280: 97a7 15bc f6ed 2e3b c168 d4bc 403b 8f3b
00000290: d766 6fbc d2b2 1abc 2a05 4fbc 8ca0 da3b
000002a0: 7012 24bc 771f 9dbc 6f74 a6bc d3cc cc3a
000002b0: 2456 233c 4f69 6dbb a159 4dbc 0685 b5bc
000002c0: 6a1a afbc 7d7e 853c 60d2 843b d935 e83b
000002d0: e6fe 043d 5e4c 75bc ef56 6b3c 07e9 aa3c
000002e0: 6d64 813b ef51 b93c 1975 c3bc 6b71 94bb
000002f0: 2f39 213c 9e20 80bc c981 50bc 4ed0 20bc
00000300: af61 86bc be41 ab3b 4456 90bc aaa3 c5bb
00000310: 62a2 613c bc4b 0ebd 17b9 0fbc f3a7 8bbc
00000320: 1b81 08bd d2cd 45bb be8c 27b7 6baf 57bc
00000330: ac56 07bc 4128 ca3c b795 b5bc e64c b2bc
00000340: 5bc5 25bc ef18 e5bc bb30 863c 8e8a b23c
00000350: f831 7e3c 164d 1c3b e5c5 fcbb e1c7 7dbc
00000360: c93b 1ebd ea65 4bbb 671f f03c 1646 13bd
00000370: 4092 013c af0e 92bc 8dec 8ebc 086b 993c
00000380: 0be7 83bb 341e 6a3c 92f5 2bbb b032 983c
00000390: 957a 60bb 13d7 b3bc 32d4 063c dc32 2e3c
000003a0: 4414 43bb ff58 0fbc a57f 173d aac7 fbbc
000003b0: bb5f 93bc 7201 c13c 0927 18bd e5d0 ddbc
000003c0: b080 933c 1355 34bc adfd 32bb 8d74 0e3c
000003d0: f72d 403b 921b d03a 025b 5bbc 002b 933b
000003e0: f5df c43b 5682 093b 8e44 5e3c 6b39 babc
000003f0: 8dc6 9bbc 854d 323c 5853 3dbd d8ea bdba

bert.embeddings.position_embeddings.weight f4 [512, 32]
-0.020284994 0.013554313 0.00024981395 0.012586083 -0.0068490785 0.01655994 0.00017421131 0.009565163
0.008136808 0.032842893 0.012661103 -0.010036912 0.0038336297 -0.008573493 -0.0062875096 0.024235133
0.008070854 0.005808163 -0.030393664 -0.018624071 0.008034106 0.0038088225 0.018935867 -0.05221302
0.030692253 -0.008707474 0.010112393 -0.048294105 0.025769064 0.009993032 0.01979835 -0.020156829
0.03628111 -0.04186062 0.04112441 -0.0014251637 0.0042679664 -0.0024369932 0.00895105 0.04414459
0.010977465 0.0048144194 0.030509349 0.0079574045 -0.010776269 -0.019894022 -0.008109518 0.015340602
0.009544628 -0.008755305 -0.010446666 0.015857471 0.0061986726 0.041054435 -0.028495723 -0.008812324
-0.001443818 0.0013685706 0.006215245 -0.011443547 -0.022796968 0.0012416007 -0.0039004036 -0.01623774
0.020527119 0.0031973214 0.014783692 0.019417528 -0.037173834 0.0186513 0.006080423 -0.020574495
-0.017246382 0.032052387 0.0037430646 -0.03230923 0.021255009 -0.020597845 0.0035325224 -0.004159129
-0.012084838 -0.013802949 0.010649342 0.013158528 0.044676274 0.0021199475 0.011642141 0.028161712
-0.0076202923 -0.021352375 0.023412261 0.012015187 -0.01739685 -0.022626122 -0.004710196 -0.017048929
-0.012640894 -0.0345839 0.009451923 -0.011250531 0.008893902 -0.012701596 -0.003519432 0.042583723
-0.0041976064 0.008097058 0.0011880634 -0.01710723 0.018724233 0.0023605148 -0.037014287 0.001902078
0.0015017566 0.041186575 -0.025674824 0.03210301 -0.017501956 -0.022449367 0.0112167355 0.017131032
0.0045962404 0.0031585854 0.0111114 -0.029053366 0.009920573 -0.017894268 0.017873388 -0.013240058
-0.017317057 0.014529863 0.01558855 -0.008700931 -0.032891117 -0.00877205 0.015450853 -0.030020515
0.034961384 -0.008857605 -0.03400093 0.030973377 0.024001595 -0.023126291 0.022021145 -0.013661012
0.012935336 0.00525219 -0.012199509 -0.004286566 0.03835197 0.026093433 -0.010395566 0.010595797
0.0063718874 -0.016008453 -0.0050458875 -0.008130519 -0.007953961 -0.0050478345 0.019055376 0.008831996
0.0035355063 0.021464428 0.010935396 -0.022014143 0.027126964 -0.030487735 0.007529308 0.027864348
-0.027104028 0.006714877 0.008407292 0.026015269 -0.008786048 -0.012205171 0.02378199 0.0024925047
0.0040598987 0.014531419 0.012938919 -0.029333908 0.031047951 0.0042210156 0.013543675 0.009843755
-0.0037324843 -0.0095156 0.01975001 0.014563258 -0.0050023645 -0.017151158 0.001198234 0.029331235
-0.0018162213 0.034151137 0.024641965 0.010161163 0.00881132 -0.00044770646 -0.00014653109 -0.0011380011
0.024811747 0.032692533 -0.004464354 0.007365428 -0.035472102 0.009527881 -0.002360402 0.0028400763
0.005629191 0.03811574 -0.001963152 -0.0067791394 -0.012914117 -0.005954775 0.012606511 -0.0041783955
-0.016468955 0.06304658 -0.029200895 -0.008516268 0.00026455903 -0.020155894 0.0008373291 -0.025665833
-0.0060308226 0.050353628 -0.011335889 0.0029331096 0.010466367 0.014461141 0.0062641934 -0.0055300808
0.030806977 -0.01725535 -0.020312227 -0.05114745 -0.0044216085 0.008865655 0.0056664892 0.017726151
-0.017564824 0.008441738 0.016703961 -0.014643177 -0.0010343776 -0.0016642298 -0.0054515754 -0.011214071
0.00824379 -0.021461189 -0.0027335063 -0.0034338634 -0.01834691 -0.0018695894 0.03348508 0.008069165
00000000: b72c a6bc e912 5e3c 76f9 8239 dc35 4e3c
00000010: 3c6e e0bb b6a8 873c 7eac 3639 34b7 1c3c
00000020: 3f50 053c 4586 063d 8470 4f3c dc71 24bc
00000030: a23d 7b3b d677 0cbc 7407 cebb c288 c63c
00000040: 9d3b 043c 6752 be3b 22fc f8bc 8291 98bc
00000050: 7ca1 033c 709d 793b 641f 9b3c 52dd 55bd
00000060: 526e fb3c cba9 0ebc 73ae 253c 0ad0 45bd
00000070: a519 d33c d0b9 233c 2630 a23c ef1f a5bc
00000080: 809b 143d 0b76 2bbd 1272 283d 8fcc baba
00000090: 4cda 8b3b f6b5 1fbb 6da7 123c f5d0 343d
000000a0: d3da 333c 47c2 9d3b beee f93c c65f 023c
000000b0: f38e 30bc caf8 a2bc c9dd 04bc 2657 7b3c
000000c0: 1261 1c3c 6972 0fbc 7e28 2bbc 87e7 813c
000000d0: 3c1e cb3b b228 283d dd6f e9bc 9161 10bc
000000e0: 7e3e bdba 9c61 b33a 41a9 cb3b b77d 3bbc
000000f0: b5c0 babc 35bd a23a ea9d 7fbb 0205 85bc
00000100: 7d28 a83c 278a 513b 4c37 723c 8211 9f3c
00000110: 9743 18bd 9cca 983c 493e c73b d88b a8bc
00000120: 4948 8dbc 5d49 033d 344e 753b af56 04bd
00000130: fc1e ae3c d0bc a8bc e481 673b 4e49 88bb
00000140: 7cff 45bc c425 62bc 947a 2e3c de96 573c
00000150: 78fe 363d d1ee 0a3b aebe 3e3c 64b3 e63c
00000160: a5b3 f9bb 2deb aebc 12cb bf3c 59db 443c
00000170: d783 8ebc 6b5a b9bc fd57 9abb 32aa 8bbc
00000180: c11b 4fbc d9a7 0dbd 3ddc 1a3c 2654 38bc
00000190: bbb7 113c 5b1a 50bc 45a6 66bb 456c 2e3d
000001a0: 138c 89bb 86a9 043c cbb8 9b3a 7624 8cbc
000001b0: 9063 993c deb2 1a3b 4b9c 17bd 264f f93a
000001c0: 97d6 c43a 41b3 283d 0254 d2bc 727e 033d
000001d0: 4360 8fbc bce7 b7bc 66c6 373c 6156 8c3c
000001e0: 0f9c 963b 4500 4f3b 970c 363c 5301 eebc
000001f0: e689 223c 0097 92bc 366b 923c d4ec 58bc
00000200: 80dc 8dbc aa0e 6e3c 1e67 7f3c 5a8e 0ebc
00000210: d6b8 06bd a5b8 0fbc 9325 7d3c 95ed f5bc
00000220: ab33 0f3d 7d1f 11bc 8f44 0bbd e1bb fd3c
00000230: fe9e c43c 5973 bdbc b065 b43c 70d2 5fbc
00000240: bbee 533c 901a ac3b 73e0 47bc 5276 8cbb
00000250: f516 1d3d e5c1 d53c 2a52 2abc fe99 2d3c
00000260: 44cb d03b 2924 83bc f957 a5bb de35 05bc
00000270: 5551 02bc 4e68 a5bb 051a 9c3c 13b4 103c
00000280: f4b3 673b 2bd6 af3c 602a 333c 0157 b4bc
00000290: 5e39 de3c 6ac1 f9bc 6ab8 f63b c643 e43c
000002a0: 4409 debc 7908 dc3b bdbe 093c f91d d53c
000002b0: 5bf3 0fbc 33f8 47bc 73d2 c23c 4a59 233b
000002c0: e608 853b 3015 6e3c c2fd 533c aa4d f0bc
000002d0: 4658 fe3c 7250 8a3b 4ae6 5d3c b347 213c
000002e0: b29c 74bb 52e7 1bbc c6ca a13c bb9a 6e3c
000002f0: e0ea a3bb 9680 8cbc 100e 9d3a 0f48 f03c
00000300: 460e eeba 10e2 0b3d f2dd c93c 027b 263c
00000310: 5b5d 103c 25ba eab9 24a6 19b9 fb28 95ba
00000320: 0142 cb3c 9be8 053d b749 92bb b059 f13b
00000330: 324b 11bd d41a 1c3c f9b0 1abb 9320 3a3b
00000340: 1475 b83b 401f 1c3d 3aa8 00bb 8b23 debb
00000350: bc95 53bc 4620 c3bb 8a8b 4e3c ecea 88bb
00000360: e7e9 86bc 911e 813d b736 efbc d187 0bbc
00000370: 83b4 8a39 f91d a5bc 3480 5b3a 2741 d2bc
00000380: 359e c5bb 9b3f 4e3d 2aba 39bc 6a39 403b
00000390: 207b 2b3c 6cee 6c3c dd43 cd3b ae35 b5bb
000003a0: ea5e fc3c 175b 8dbc d465 a6bc fd7f 51bd
000003b0: 24e3 90bb 4141 113c f5ad b93b 6f36 913c
000003c0: 1be4 8fbc 374f 0a3c bfd6 883c f0e9 6fbc
000003d0: f493 87ba 4922 daba 21a3 b2bb 39bb 37bc
000003e0: f610 073c 60cf afbc a024 33bb ab0a 61bb
000003f0: 424c 96bc 030d f5ba a727 093d 8834 043c

val_48 f4 [32, 32]
-0.0036667492 -0.004921897 -0.0030905446 -0.015308816 0.004769855 -0.0018012391 0.007327826 0.010449687
0.012950472 0.0074753636 0.024571633 0.021406688 0.062492292 0.0006420184 -0.026149355 0.027603457
0.014757227 -0.010392845 -0.019156264 0.0015143837 0.011220139 -0.027536737 0.003497318 -0.014153891
-0.0117628975 0.019312914 -0.0041121016 -0.008594187 0.0166619 -0.019037785 -0.060422227 -0.0017744809
0.015839733 -0.021189937 -0.023306405 -0.0331271 -0.015135089 0.02807516 0.015288638 0.011953581
-0.0033903294 0.012599776 -0.0031479364 0.03624193 -0.0034144472 0.004186082 0.010255671 0.039463744
0.0071885237 -0.041882213 -0.006353274 -0.035586577 -0.006707926 -0.029094014 0.004956501 -0.01957957
0.023345925 -0.016015451 -0.029071266 0.012000655 0.015831618 0.0030177347 -0.0012147644 -0.015210267
0.013573783 -0.0074778423 -0.030775122 0.0029464161 -0.0037995486 -0.03693734 -0.011985886 0.00983502
-0.022809718 0.010048832 -0.015482682 -0.00044715658 -0.036727004 0.0129773 0.011999531 -0.009875051
-0.016266642 -0.000982798 -0.006361855 -0.030996805 0.0653841 0.010538605 -0.015282718 0.014145417
0.032471053 -0.02189383 -0.0045842524 -0.018805094 -0.026155196 -0.02813673 -0.011745048 -0.007834378
0.0012343134 -0.0018088436 -0.005101321 0.026345875 -0.0112436935 -0.011762279 -0.005819285 0.0005265176
0.012283889 0.010768096 -0.035490673 -0.0043509826 -0.0070831445 -0.006788097 0.03511341 -0.0077488264
0.013374679 -0.028200494 -0.010481417 -0.0038858796 -0.0089010745 0.019851204 -0.019068541 -0.0380384
0.048108205 0.0015752391 -0.012178408 0.015892489 -0.013297569 0.0027367275 0.03250167 -0.007774546
0.020762619 0.0037800164 0.030747483 0.0012485128 -0.00650021 -0.02678167 -0.037340593 0.011074808
0.01815543 -0.018611716 0.031443503 0.012123096 -0.005391234 0.0017649804 0.01777734 0.011221984
0.019935295 -0.021556806 0.014515539 -0.021448426 0.008751901 0.035667576 0.0059619714 0.060682647
-0.013942599 0.021398025 0.017933846 -0.012484156 -0.009896368 -0.009370934 0.009798101 -0.017962186
-0.008931495 0.0566799 0.008334728 0.023644269 0.014180683 0.0017748026 0.01029302 0.018107612
-0.035232224 -0.0029055162 -0.008759656 0.015820341 0.02565808 0.0010749537 0.013572071 -0.031813167
-0.009659886 0.026393075 0.00638067 0.00618219 0.019294824 0.014180729 -0.04152677 -0.008145535
-0.015278464 0.03261102 0.011458385 0.0082266675 -0.012997795 0.011562073 -0.01319012 -0.0006434702
-0.00401399 -0.03234605 -0.027284045 0.01684263 -0.020760251 0.009055581 0.005104778 -0.028969519
0.03292346 -0.007054093 -0.022454765 0.0040462534 -0.014746534 0.012875747 0.013847999 -0.020680351
0.0015973528 -0.0037979248 0.019957878 0.031004505 0.008878506 -0.012569593 0.004864981 0.0130328005
-0.018305045 0.0032356523 0.0026706846 0.024654876 0.05553277 -0.01638707 -0.008453237 -0.015784739
-0.009918215 0.014862402 0.0022707225 -0.008259757 -0.015481758 0.00841342 0.015356827 0.019770516
-0.028853558 0.0408105 -0.038787767 0.0016337113 -0.0028694612 -0.028892778 -0.031096213 0.017666243
0.0041492223 0.015686953 -0.0020335685 -0.026357798 0.020364584 0.008932405 -0.005462719 0.017933743
0.032227047 -0.011070038 0.005107191 -0.010952998 -0.010762688 -0.0001365849 -0.0053528994 -0.01658257
00000000: d84d 70bb dd47 a1bb bc8a 4abb d4d1 7abc
00000010: 724c 9c3b 8e17 ecba 431e f03b 2a35 2b3c
00000020: 372e 543c e5f3 f43b 734a c93c 145d af3c
00000030: ebf7 7f3d 204d 283a 2c37 d6bc a520 e23c
00000040: 4cc8 713c c046 2abc 99ed 9cbc 497e c63a
00000050: add4 373c b994 e1bc 4233 653b b9e5 67bc
00000060: 2bb9 40bc 1e36 9e3c cfbe 86bb a2ce 0cbc
00000070: 897e 883c 21f5 9bbc 4c7d 77bd b395 e8ba
00000080: 54c2 813c 8596 adbc 13ed bebc 48b0 07bd
00000090: 2af9 77bc e1fd e53c 327d 7a3c f4d8 433c
000000a0: 4a30 5ebb 4a6f 4e3c 9c4d 4ebb 6b72 143d
000000b0: ebc4 5fbb 672b 893b 6707 283c bca4 213d
000000c0: b58d eb3b af8c 2bbd 202f d0bb 3bc3 11bd
000000d0: 29ce dbbb 9256 eebc 256a a23b 5665 a0bc
000000e0: f43f bf3c d632 83bc dd26 eebc 659e 443c
000000f0: 4fb1 813c 30c5 453b bb38 9fba 7c34 79bc
00000100: 9364 5e3c b008 f5bb 1c1c fcbc a918 413b
00000110: d901 79bb 9c4b 17bd 7360 44bc 1023 213c
00000120: 72db babc dba3 243c 13ab 7dbc 5770 eab9
00000130: 0e6f 16bd be9e 543c ae99 443c f7ca 21bc
00000140: 9f41 85bc 3bd1 80ba 1c77 d0bb 03ed fdbc
00000150: 19e8 853d 1daa 2c3c 5e64 7abc 2ec2 673c
00000160: 5e00 053d b05a b3bc 7f37 96bb 240d 9abc
00000170: 6c43 d6bc 007f e6bc 4d6e 40bc c35b 00bc
00000180: afc8 a13a b816 edba fb28 a7bb 4ed3 d73c
00000190: 7837 38bc 93b6 40bc b3af bebb ff05 0a3a
000001a0: 5d42 493c ab6c 303c ab5e 11bd b092 8ebb
000001b0: b919 e8bb af6e debb 14d3 0f3d dee9 fdbb
000001c0: 7821 5b3c b904 e7bc 40ba 2bbc 3eaa 7ebb
000001d0: d0d5 11bc fe9e a23c a135 9cbc 27ce 1bbd
000001e0: 1c0d 453d 4178 ce3a f287 47bc f730 823c
000001f0: 0cde 59bc ab5a 333b 7920 053d 9ec1 febb
00000200: 5e16 aa3c 27ba 773b 25e2 fb3c 23a5 a33a
00000210: b7ff d4bb 3c65 dbbc 73f2 18bd 1d73 353c
00000220: b2ba 943c 9977 98bc e7ca 003d f39f 463c
00000230: f3a8 b0bb ea56 e73a c9a1 913c 6adc 373c
00000240: 584f a33c e697 b0bc 95d2 6d3c 9cb4 afbc
00000250: 2264 0f3c 2a18 123d a45c c33b 5e8e 783d
00000260: 806f 64bc e94a af3c 00ea 923c 588a 4cbc
00000270: 6024 22bc 8c88 19bc 3788 203c 6f25 93bc
00000280: 6855 12bc 2f29 683d 628e 083c a0b1 c13c
00000290: 1856 683c 7ea0 e83a 0ea4 283c 6a56 943c
000002a0: aa4f 10bd 796a 3ebb a984 0fbc a999 813c
000002b0: e530 d23c 76e5 8c3a 645d 5e3c 864e 02bd
000002c0: 8044 1ebc 4a36 d83c f014 d13b f893 ca3b
000002d0: 2e10 9e3c 4a56 683c f917 2abd da74 05bc
000002e0: 8652 7abc 2293 053d f3bb 3b3c 25c9 063c
000002f0: b4f4 54bc d96e 3d3c 601b 58bc 8eae 28ba
00000300: ca87 83bb 4b7d 04bd ca82 dfbc 8ef9 893c
00000310: 6711 aabc dc5d 143c fb45 a73b 7c51 edbc
00000320: c0da 063d 0526 e7bb 0ef3 b7bc 6f96 843b
00000330: 729b 71bc ccf4 523c b8e2 623c d769 a9bc
00000340: 445e d13a 9be6 78bb b47e a33c 29fd fd3c
00000350: 2777 113c b2f0 4dbc 6b6a 9f3b 8787 553c
00000360: 76f4 95bc 3d0d 543b a706 2f3b 06f9 c93c
00000370: 5476 633d 2d3e 86bc 727f 0abc ff4e 81bc
00000380: 0280 22bc 6f81 733c 67d0 143b ef53 07bc
00000390: 33a7 7dbc 71d8 093c 339b 7b3c c7f5 a13c
000003a0: 4c5e ecbc e928 273d ecdf 1ebd 4122 d63a
000003b0: 920d 3cbb 8cb0 ecbc 7cbd febc ccb8 903c
000003c0: 33f6 873b ed81 803c 9e45 05bb 4fec d7bc
000003d0: a1d3 a63c 3959 123c 9c00 b3bb c9e9 923c
000003e0: 8200 043d 1b5f 35bc 395a a73b 3474 33bc
000003f0: fc55 30bc 3b38 0fb9 6067 afbb 2bd8 87bc

val_56 f4 [32, 32]
-0.009145429 -0.03785277 0.028237425 -0.007365884 -0.02300374 0.021982355 -0.003424993 0.00024223734
-0.048108745 -0.007701018 0.007081963 0.037001207 0.006545598 -0.005626552 0.036826394 0.017160213
-0.005341796 0.013159956 -0.030057043 0.044005074 0.031182706 -0.012581376 0.0036967418 0.026459945
0.019367214 -0.022647345 -0.004392347 0.016829785 0.011704319 -0.036941707 -0.013877384 -0.012253651
0.018188087 0.0057339645 -0.023381714 0.0030982227 0.0005648438 -0.019605542 0.01835173 -0.03693342
0.0089402115 -0.0037512768 0.009192518 0.038708948 -0.022608306 0.0031022276 0.009023939 -0.00395181
0.026480496 0.04272983 0.033433154 -0.0081351325 0.01946341 0.017912766 0.03315817 -0.008812785
-0.008571311 0.02031537 -0.012065085 -0.024045289 -0.006149395 0.01574623 -0.031659525 -0.016591366
0.0022731274 0.018618787 -0.01500656 -0.03533485 0.012811534 0.020681435 -0.009935193 0.0031069622
0.0006192055 -0.03314457 -0.005516875 0.0018220372 0.018054541 -0.018213043 -0.017030263 0.03365652
0.009553381 0.01946273 -0.002650437 0.027264623 0.018312573 -0.026646541 -0.00905567 0.041865535
0.026865674 -0.015447579 0.0016201702 0.003477417 -0.013920113 0.0108393645 0.011227021 0.025000397
0.024736365 0.008858703 -0.04405984 0.0076809814 0.0034242475 0.0022770665 -0.0010055096 -0.025646942
-0.01263594 -0.0365373 -0.0021319205 -0.015130341 0.021875877 -0.018537354 -0.014760982 -0.0062792585
0.02375567 0.031386673 -0.058929875 0.015982836 -0.0026984927 -0.0070574586 -0.0044908356 -0.010965714
-0.010715727 -0.0103238905 0.017738491 0.00017809987 0.009986049 0.03329793 0.0058683935 0.034508977
0.014996699 -0.021813337 0.0036113842 0.026896052 0.007849597 0.019922307 0.0109484745 0.011347615
-0.020481484 -0.013767706 0.012692775 0.0076055857 0.017477188 0.005168215 0.013785666 -0.0038925011
-0.02469905 0.014170776 0.009432636 -0.00024292759 0.013755517 -0.0009329 0.018035416 0.025340276
0.039255753 0.048020028 -0.019344682 -0.011937408 -0.013924109 -0.01846687 -0.0017257748 0.011846489
0.005231194 -0.010422992 0.014192975 0.008021576 -0.023272114 -0.018392107 0.01556128 -0.018561497
0.0043394407 0.013652962 -0.0032040689 -0.027136138 0.013768862 0.02677234 0.039074156 -0.007207185
-0.023039276 -0.02536462 0.0059858286 -0.01614695 0.033816397 -0.018431079 -0.0031637498 -0.04180447
-0.0005074357 -0.044918943 -0.0009428808 0.005224862 -0.022243528 -0.01102343 -0.024727536 0.022750676
-0.01182015 0.0048438674 0.0333541 0.014592164 0.024032364 0.0060689203 -0.0021317438 -0.033632457
-0.0048105535 0.0063314317 -0.029956106 0.004674846 0.0020180005 -0.015086857 -0.031929027 -0.0024323247
0.049587395 -0.029073324 0.031354226 -0.0017061954 0.010227434 0.026229002 -0.0045197476 -0.0031482663
0.026998486 -0.02842328 0.012867676 0.0048648296 0.008207953 0.03796851 0.0005512745 -0.006683399
0.020084579 -0.034169026 -0.052445196 0.026742913 -0.0031730053 0.0021727746 0.008074438 0.017677795
0.0069382545 -0.008370241 0.0056778076 0.021771204 0.009166258 -0.0087802615 0.02195012 -0.006086622
0.0039953184 -0.0030499399 0.01880046 -0.010891247 -0.022323744 -0.05185036 0.0017006791 -0.008693742
0.013591264 0.0065580895 -0.015079437 0.0032919059 -0.024803996 -0.015404758 0.029455982 -0.009070998
00000000: b6d6 15bc 820b 1bbd 2c52 e73c 835d f1bb
00000010: 5772 bcbc 5714 b43c d975 60bb 1701 7e39
00000020: ad0d 45bd d258 fcbb d00f e83b 948e 173d
00000030: 757c d63b f05e b8bb 46d7 163d 9393 8c3c
00000040: 3c0a afbb db9c 573c 303a f6bc aa3e 343d
00000050: e072 ff3c 1e22 4ebc 0945 723b 87c2 d83c
00000060: fea7 9e3c ed86 b9bc aded 8fbb 9ede 893c
00000070: 79c3 3f3c 3050 17bd f85d 63bc 8ac3 48bc
00000080: 2fff 943c fbe3 bb3b 028b bfbc 8d0b 4b3b
00000090: 0712 143a cd9b a0bc 5e56 963c 7f47 17bd
000000a0: f779 123c fbd7 75bb 379c 163c 468d 1e3d
000000b0: 0e35 b9bc be4e 4b3b 25d9 133c 2f7e 81bb
000000c0: a0ed d83c 7905 2f3d 34f1 083d 3849 05bc
000000d0: bb71 9f3c cbbd 923c dcd0 073d 8063 10bc
000000e0: af6e 0cbc 6b6c a63c a2ac 45bc a0fa c4bc
000000f0: dd80 c9bb 3dfe 803c 6bad 01bd 9eea 87bc
00000100: c0f8 143b 6d86 983c 13de 75bc 47bb 10bd
00000110: 78e7 513c 1d6c a93c 38c7 22bc 2d9e 4b3b
00000120: 2d52 223a 9ac2 07bd e7c6 b4bb 6cd1 ee3a
00000130: 1ee7 933c 8533 95bc 0d83 8bbc 6bdb 093d
00000140: c985 1c3c 4e70 9f3c f4b2 2dbb 0f5a df3c
00000150: 4004 963c d949 dabc 3c5e 14bc 327b 2b3d
00000160: 6715 dc3c d817 7dbc e45b d43a 60e5 633b
00000170: 3011 64bc 9797 313c 8af1 373c a2cd cc3c
00000180: eba3 ca3c 1824 113c 1778 34bd beb0 fb3b
00000190: 5769 603b d63a 153b 4ecb 83ba 8919 d2bc
000001a0: f906 4fbc 23a8 15bd b1b7 0bbb 40e5 77bc
000001b0: 0a35 b33c a6db 97bc 0cd8 71bc 3dc2 cdbb
000001c0: 409b c23c 508f 003d 7460 71bd 70ee 823c
000001d0: 32d9 30bb 4142 e7bb dc27 93bb 8aa9 33bc
000001e0: 0491 2fbc 8925 29bc 5050 913c 52c0 3a39
000001f0: 869c 233c 6963 083d a74b c03b 4959 0d3d
00000200: b7b4 753c e2b1 b2bc f9ac 6c3b 1c55 dc3c
00000210: 999b 003c 1b34 a33c 3b61 333c 59eb 393c
00000220: c9c8 a7bc f291 61bc 5bf5 4f3c 4738 f93b
00000230: 522c 8f3c 215a a93b 46dd 613c 5519 7fbb
00000240: a955 cabc 8b2c 683c 588b 1a3c 61ba 7eb9
00000250: d25e 613c dc8d 74ba 02bf 933c 6996 cf3c
00000260: a4ca 203d a6b0 443d bd78 9ebc 1e95 43bc
00000270: f221 64bc d547 97bc 6533 e2ba c717 423c
00000280: 706a ab3b 32c5 2abc a789 683c ee6c 033c
00000290: 29a5 bebc 0bab 96bc bdf4 7e3c 480e 98bc
000002a0: de31 8e3b acb0 5f3c 5bfb 51bb 9b4c debc
000002b0: cb96 613c ab51 db3c 390c 203d 402a ecbb
000002c0: ddbc bcbc 77c9 cfbc c524 c43b 9c46 84bc
000002d0: 1083 0a3d c6fc 96bc ea56 4fbb 2a3b 2bbd
000002e0: 6f05 05ba edfc 37bd a92b 77ba 5235 ab3b
000002f0: 0f38 b6bc 9e9b 34bc 6791 cabc a05f ba3c
00000300: 4da9 41bc 4eb9 9e3b 4f9e 083d f913 6f3c
00000310: 85df c43c cbdd c63b bab4 0bbb 30c2 09bd
00000320: d9a1 9dbb e677 cf3b 8266 f5bc 732f 993b
00000330: 6e40 043b dd2e 77bc 03c8 02bd a367 1fbb
00000340: 271c 4b3d 2e2b eebc 4a6d 003d 6ba2 dfba
00000350: f890 273c 34de d63c 641a 94bb 2553 4ebb
00000360: ee2b dd3c f0d7 e8bc f2d2 523c 2669 9f3b
00000370: a67a 063c de84 1b3d 6883 103a 6a00 dbbb
00000380: 6a88 a43c d2f4 0bbd c6d0 56bd f413 db3c
00000390: 32f2 4fbb 1c65 0e3b a64a 043c 06d1 903c
000003a0: 4c5a e33b 5623 09bc e70c ba3b 8659 b23c
000003b0: 132e 163c 16db 0fbc bdd0 b33c 4972 c7bb
000003c0: 29eb 823b 80e1 47bb 6c03 9a3c 3371 32bc
000003d0: 49e0 b6bc 0b61 54bd 52e9 de3a 3270 0ebc
000003e0: e5ad 5e3c 3ee5 d63b be0f 77bc 04bd 573b
000003f0: c031 cbbc 3d64 7cbc ac4d f13c 869e 14bc

val_64 f4 [32, 32]
0.000102273836 0.021741493 -0.019575212 -0.03323959 -0.0012215253 -0.030005937 -0.006061897 -0.009937677
0.012072737 0.016675087 0.006159494 0.039705865 0.0027041766 -0.045695737 0.0006682344 0.0069316505
0.031641293 0.02192206 -0.03711521 0.0010516861 0.013305576 -0.010082504 0.009491716 0.003672467
0.0051236255 -0.0038013554 0.0018143501 -0.015982926 0.011571727 -0.028848233 0.024433518 -0.0046343217
-0.025241844 -0.0083476845 0.023688154 -0.005736909 -0.0064763757 0.011352494 -0.02779655 0.011476157
-0.019001033 -0.012275562 -0.021471314 0.019594751 -0.009584276 -0.008151844 -0.006945221 -0.03601381
-0.008608034 -0.027986092 0.0017829634 0.0120909 -0.0029898807 0.031217108 0.003689301 0.005817137
0.00030440575 -0.0035427224 -0.008990455 -0.022175135 -0.005772421 -0.010984332 0.02728944 0.0069131795
0.027310187 -0.013198177 -0.00027493943 -0.007787739 0.006130668 -0.0053285593 -0.017007632 -0.050112844
0.0062380102 -0.01200184 -0.0033169026 -0.016981797 0.003681164 -0.00072997593 0.005359607 -0.002595342
0.0070083197 0.014768444 -0.007881609 -0.027358767 -0.028511604 -0.017456336 -0.021516344 -0.014727399
-0.00711573 -0.03506056 -0.0008160409 -0.0055584153 0.019566992 -0.021597285 0.009331326 0.007910125
0.010952389 0.010535671 0.014161963 0.033307202 0.030833324 0.03712751 0.0002544191 -0.012556413
-0.01791853 -0.009509919 0.023099223 0.016328646 -0.006452674 0.016747834 0.029585058 0.015904745
0.028156511 -0.022058327 -0.014396221 0.03248852 -0.018635977 -0.02509928 -0.024032194 -0.026705844
0.0007726545 -0.010460148 -0.025650207 -0.009243709 0.025679419 -5.5805114e-05 0.006670574 -0.016910667
0.03889584 -0.0067934585 -0.005626834 -7.881747e-05 -0.0056633097 -0.0030437934 0.004552624 -0.037225123
-0.013442682 0.01164935 0.011292041 0.02087681 -0.008628879 -0.015269865 -0.01758739 -0.018815856
0.024482628 -0.021437649 0.014699646 0.01621799 0.027078547 0.0146278525 -0.015168762 -0.008419634
-0.0043321517 -0.016539842 -0.015729299 0.004712705 0.028774 0.010886267 0.0026832086 -0.0045789
-0.019030634 -0.007177497 -0.04307074 0.012148168 0.024418363 -0.003173459 0.007925223 0.0024263537
-0.0044328994 0.0063079195 0.030764941 -0.026126796 0.002490205 0.0013720677 -0.0030845732 0.004625629
-0.024026679 0.0011816272 -0.0013227925 0.0006017586 -0.026019014 -0.029076146 0.026093971 -0.008003131
0.02064833 0.008402471 -0.019052384 0.030303022 0.04915037 -0.0015604214 -0.009754068 0.009406898
0.008653068 -0.00770204 0.034992505 0.0053827744 -0.0013646404 -0.00691266 -0.006759281 -0.004001178
-0.0097458055 0.02862091 0.02600241 -0.021022867 -0.00023564106 0.0038686087 -0.011643959 0.02120714
0.041105676 0.02783568 0.0036017345 0.0062241107 0.0060538184 -0.04410592 0.005179859 0.007435003
-0.008693357 0.005511097 0.035803687 0.013427919 0.009019578 0.023941057 -0.037645984 0.013330992
0.0063329283 0.007971391 -0.012816852 -0.03007904 -0.021864772 -0.013381239 0.027045533 -0.02142615
-0.004865395 -0.02154662 0.027734028 0.004728343 -0.017771441 0.020364985 0.005542122 -0.030632697
0.021049274 0.018096434 0.005147489 -0.020564593 0.009873245 -0.017919801 -0.020894293 -0.0018421726
0.0029431938 0.021795472 0.0087988265 -0.025414573 -0.037559416 -0.0041095503 -0.0038358856 -0.013682902
00000000: d97b d638 371b b23c 325c a0bc 3c26 08bd
00000010: 961b a0ba 03cf f5bc e1a2 c6bb a3d1 22bc
00000020: bbcc 453c 319a 883c 95d5 c93b 9ea2 223d
00000030: 8e38 313b 742b 3bbd 742c 2f3a e622 e33b
00000040: 4d9a 013d e495 b33c 1e06 18bd bbd8 893a
00000050: a1ff 593c 1631 25bc 2483 1b3c c6ad 703b
00000060: 16e4 a73b 2920 79bb 7dcf ed3a a0ee 82bc
00000070: 5797 3d3c 2153 ecbc cd28 c83c 82db 97bb
00000080: fcc7 cebc bac4 08bc a90d c23c aefc bbbb
00000090: c737 d4bb d0ff 393c 97b5 e3bc 7e06 3c3c
000000a0: 0ea8 9bbc 701f 49bc 9ce4 afbc 2c85 a03c
000000b0: 5e07 1dbc 508f 05bc bd94 e3bb 3883 13bd
000000c0: b608 0dbc 1743 e5bc 53b2 e93a e918 463c
000000d0: e0f1 43bb 05bb ff3c 33c8 713b af9d be3b
000000e0: a698 9f39 052d 68bb b44c 13bc a1a8 b5bc
000000f0: 9426 bdbb a1f7 33bc 1b8e df3c f487 e23b
00000100: 9db9 df3c 2b3d 58bc bf25 90b9 4a30 ffbb
00000110: c5e3 c83b 329b aebb 9753 8bbc 2043 4dbd
00000120: 3968 cc3b 5ea3 44bc 6460 59bb 691d 8bbc
00000130: af3f 713b db5b 3fba a49f af3b 9d16 2abb
00000140: 0ca6 e53b 58f7 713c dd21 01bc 7e1f e0bc
00000150: 2b91 e9bc 9700 8fbc 0b43 b0bc 304b 71bc
00000160: 122b e9bb a99b 0fbd 94eb 55ba 5e23 b6bb
00000170: f54a a03c caec b0bc 6be2 183c 7899 013c
00000180: a671 333c cf9d 2c3c 9407 683c 226d 083d
00000190: 2b96 fc3c 0413 183d 8e63 8539 6ab9 4dbc
000001a0: e2c9 92bc 7ecf 1bbc 953a bd3c a7c3 853c
000001b0: f470 d3bb c132 893c 5d5c f23c ab4a 823c
000001c0: 7ca8 e63c aab3 b4bc 21de 6bbc af12 053d
000001d0: 7aaa 98bc 019d cdbc 2adf c4bc 37c6 dabc
000001e0: f78b 4a3a 0a61 2bbc 6220 d2bc ed72 17bc
000001f0: a55d d23c 4910 6ab8 d594 da3b 3d88 8abc
00000200: 3f51 1f3d a99b debb 4e61 b8bb cf4a a5b8
00000210: 4993 b9bb 617a 47bb 2e2e 953b 5f79 18bd
00000220: b23e 5cbc eadc 3e3c 4102 393c d805 ab3c
00000230: 2460 0dbc 752e 7abc 6e13 90bc b623 9abc
00000240: cb8f c83c 029e afbc c9d6 703c 97db 843c
00000250: d4d3 dd3c a9a9 6f3c 6686 78bc 81f2 09bc
00000260: b9f4 8dbb 907e 87bc bbda 80bc 096d 9a3b
00000270: 74b7 eb3c 505c 323c c5d8 2f3b 990a 96bb
00000280: 22e6 9bbc 3531 ebbb f26a 30bd 1c09 473c
00000290: 0509 c83c cff9 4fbb cbd8 013c 7603 1f3b
000002a0: db41 91bb aab2 ce3b c206 fc3c dd07 d6bc
000002b0: b532 233b f4d6 b33a 8d26 4abb 9792 973b
000002c0: 99d3 c4bc d4e0 9a3a 8d61 adba 56bf 1d3a
000002d0: d425 d5bc 1931 eebc 06c3 d53c 901f 03bc
000002e0: b026 a93c 85aa 093c bf13 9cbc 0b3e f83c
000002f0: e651 493d 0e87 ccba 87cf 1fbc 641f 1a3c
00000300: 99c5 0d3c 6561 fcbb 4d54 0f3d fc61 b03b
00000310: bcdd b2ba 9883 e2bb f57c ddbb 501c 83bb
00000320: dfac 1fbc 6676 ea3c 0203 d53c 2638 acbc
00000330: 6a16 77b9 7c88 7d3b 4ec6 3ebc 99ba ad3c
00000340: 6d5e 283d a707 e43c 140b 6c3b a0f3 cb3b
00000350: 1c5f c63b 69a8 34bd cfbb a93b 53a1 f33b
00000360: 956e 0ebc 6f96 b43b e3a6 123d c600 5c3c
00000370: dac6 133c 0920 c43c ad32 1abd 3c6a 5a3c
00000380: 7484 cf3b 709a 023c c6fd 51bc 5268 f6bc
00000390: c01d b3bc fc3c 5bbc 988e dd3c e585 afbc
000003a0: e46d 9fbb 8a82 b0bc 7932 e33c 37f0 9a3b
000003b0: 6a95 91bc 78d4 a63c b09a b53b 6cf1 fabc
000003c0: 876f ac3c f93e 943c 44ac a83b 1477 a8bc
000003d0: 64c3 213c 8ccc 92bc 822a abbc 0e75 f1ba
000003e0: 99e2 403b 6b8c b23c f428 103c 3932 d0bc
000003f0: e7d7 19bd 68a9 86bb 7b63 7bbb 402e 60bc

val_107 f4 [32, 32]
0.017097877 0.007499598 -0.03651968 0.022077855 -0.027423687 -0.012119111 -0.0347868 -0.015737515
0.00079203746 -0.015623874 -0.016334938 -0.0030858025 0.011033352 -0.015772669 0.018884726 -0.013232293
0.0010436699 0.013395135 0.008252035 0.018753529 -0.0043394226 -0.015165385 0.011248023 -0.030914122
-0.009694551 0.012700202 -0.006805368 -0.018795308 -0.021137657 -0.005430848 0.011904738 -0.046966195
-0.016638791 -0.005289108 0.00021853155 0.0074055437 0.034022994 0.009668302 -0.03627231 0.013699968
0.014692078 0.037842017 -0.019249016 0.0034138428 -0.04518966 -0.007195299 -0.026670286 -0.015890958
0.033056464 -0.0028102666 -0.0008176563 0.017382074 -0.009082468 0.023536274 0.03378968 0.026915696
0.026137428 -0.004126372 -0.0013351262 -0.0007766041 -0.024077436 0.0006107985 -0.023268966 0.014146174
-0.014718528 -0.007356254 0.0026586952 -0.0073975977 0.018052457 0.010590515 0.0026252114 -0.019816598
-0.04444354 0.0039151446 -0.0055344556 0.04801412 -0.029124755 -0.020932395 -0.021846592 -0.03462689
0.0228562 0.018225895 0.02707616 0.03079167 0.053989433 0.0048600584 -0.0011016361 0.014579533
0.005088325 -0.032202993 0.012794465 0.023368299 0.0111616915 0.022849552 -0.039104998 -0.023526073
0.011370881 0.010960244 -0.010778139 -0.0122207375 -0.0075119724 -0.039755102 -0.034094263 -0.019634154
0.010544149 -0.0014138898 -0.006840015 -0.006881468 0.023811113 0.0014294103 -0.0098059485 -0.026181497
0.01901424 -0.007172976 0.022285072 0.008784376 -0.008948566 -0.008256527 -0.020118551 -0.010461983
0.011653779 0.020334825 -0.015497317 -0.0026002964 -0.036991023 0.008306137 -0.050995894 0.022276849
0.016683323 0.0031056968 -0.016602585 -0.002251268 -0.021187399 -0.017051628 -0.0066237524 0.015291189
-0.019752903 0.0061147218 -0.025655705 0.0114061115 0.027467988 -0.005819085 0.034067485 -0.01606381
-0.016080368 0.018163096 0.0025068084 0.007979667 -0.0045784614 0.0068611917 -0.018761039 0.016754774
0.013985239 0.016809067 -0.009365084 0.002370539 0.0054633967 -0.023306787 -0.00016254799 -0.009391365
0.029546462 -0.0037192495 -0.042809393 0.027465828 -0.0023496686 -0.024811784 0.017903361 -0.014755889
0.0037752055 0.009688556 -0.038398977 -0.03981302 0.02057668 -0.0013536297 -0.041699614 -0.010511296
0.0076373573 -0.015007015 -0.030132804 -0.008885548 0.012160358 0.016460761 0.0002632799 0.017894821
-0.041489854 -0.0044280267 -0.035189945 0.04672231 0.013031734 -0.0058917985 0.020783182 0.038640033
0.04292131 -0.00010965784 -0.0050637606 0.00879181 -0.006521538 -0.0057852273 0.0029914018 0.030438473
-0.023466555 0.027877707 -0.020439012 -0.02971823 0.010317153 0.032234967 0.005416794 -0.036057074
0.026796423 -0.014028027 -0.0039348323 -0.011382128 -0.02107452 -0.011699268 -0.009803351 0.009410619
0.0052897544 -0.041891668 0.007004195 -0.016641386 -0.006283411 -0.01812761 -0.0026974117 -0.03594203
-0.034316037 0.002616288 -0.005644313 0.021688644 -0.0097019505 -0.028495237 -0.016312871 0.005109518
-0.011924301 0.053084783 0.020514602 -0.008442461 0.036206886 -0.014115074 -0.007203085 -0.017307052
0.011013985 -0.005882366 -0.011411693 0.035373293 0.01597181 0.004038389 -0.009290957 0.0061957547
0.021933645 -0.037013087 0.004564686 -0.014435078 0.019735033 0.008005991 -0.02320427 0.006758639
00000000: d910 8c3c 30bf f53b a995 15bd 9edc b43c
00000010: a4a7 e0bc 3c8f 46bc 9b7c 0ebd f6eb 80bc
00000020: bca0 4f3a 47fb 7fbc d9d0 85bc 2d3b 4abb
00000030: 3cc5 343c af35 81bc 24b4 9a3c 42cc 58bc
00000040: c0cb 883a 4577 5b3c 8b33 073c 00a1 993c
00000050: b731 8ebb 3c78 78bc a149 383c 9d3f fdbc
00000060: e5d5 1ebc 8214 503c 90ff debb 9ef8 99bc
00000070: e128 adbc 41f5 b1bb 170c 433c a05f 40bd
00000080: 134e 88bc 4150 adbb 9e25 6539 34aa f23b
00000090: b25b 0b3d cc67 1e3c 4692 14bd d575 603c
000000a0: 0bb7 703c 3b00 1b3d 1db0 9dbc c7ba 5f3b
000000b0: cb18 39bd 8bc6 ebbb a57b dabc c12d 82bc
000000c0: 3766 073d 732c 38bb fc57 56ba da64 8e3c
000000d0: a2ce 14bc 25cf c03c 0c67 0a3d 4e7e dc3c
000000e0: 291e d63c 8436 87bb 67ff aeba 0595 4bba
000000f0: 0b3e c5bc fe1d 203a 8f9e bebc 5bc5 673c
00000100: fb25 71bc bb0c f1bb 813d 2e3b 8c67 f2bb
00000110: bfe2 933c d783 2d3c bd0b 2c3b 6b56 a2bc
00000120: 6e0a 36bd 9d4a 803b 615a b5bb 74aa 443d
00000130: 0a97 eebc 6a7a abbc a0f7 b2bc edd4 0dbd
00000140: ed3c bb3c 794e 953c d3ce dd3c d03e fc3c
00000150: 0624 5d3d 2041 9f3b c664 90ba fede 6e3c
00000160: f7bb a63b 49e7 03bd e09f 513c e06e bf3c
00000170: 87df 363c fc2e bb3c 902c 20bd c0b9 c0bc
00000180: ef4c 3a3c 9892 333c cb96 30bc 7d39 48bc
00000190: fe26 f6bb 3fd6 22bd 6da6 0bbd ced7 a0bc
000001a0: 5ec1 2c3c 4552 b9ba 3422 e0bb f07d e1bb
000001b0: 860f c33c 0d5b bb3a 21a9 20bc 947a d6bc
000001c0: c0c3 9b3c 490b ebbb 2f8f b63c 58ec 0f3c
000001d0: 029d 12bc 6246 07bc a9cf a4bc bd68 2bbc
000001e0: 7eef 3e3c 3895 a63c 75e8 7dbc bc69 2abb
000001f0: e683 17bd 7716 083c 12e1 50bd f07d b63c
00000200: 77ab 883c f288 4b3b 2502 88bc 028a 13bb
00000210: 3291 adbc dbaf 8bbc 100c d9bb e587 7a3c
00000220: d7d0 a1bc 015e c83b ea2b d2bc b3e0 3a3c
00000230: 8c04 e13c 06ae bebb 598a 0b3d 4098 83bc
00000240: faba 83bc c6ca 943c 4449 243b 26bd 023c
00000250: eb06 96bb d9d3 e03b c0b0 99bc 4f41 893c
00000260: 5822 653c 2bb3 893c 0270 19bc 0b5b 1b3b
00000270: 4b06 b33b e0ed bebc a571 2ab9 3dde 19bc
00000280: 6c0b f23c a7be 73bb e758 2fbd 0400 e13c
00000290: e6fc 19bb 1542 cbbc 12aa 923c afc2 71bc
000002a0: 7069 773b c0bc 1e3c 3f48 1dbd fa12 23bd
000002b0: 6d90 a83c 476c b1ba 37cd 2abd 9237 2cbc
000002c0: cc42 fa3b fcdf 75bc 12d9 f6bc b194 11bc
000002d0: 3d3c 473c b8d8 863c d408 8a39 2998 923c
000002e0: 44f1 29bd fb18 91bb 5523 10bd e55f 3f3d
000002f0: 0e83 553c fd0f c1bb 7e41 aa3c 0345 1e3d
00000300: 41ce 2f3d 1bf8 e5b8 e7ed a5bb 860b 103c
00000310: a0b2 d5bb 0192 bdbb 650b 443b 1b5a f93c
00000320: ef3c c0bc ca5f e43c b76f a7bc a573 f3bc
00000330: 4709 293c d008 043d 5d7f b13b 95b0 13bd
00000340: 2c84 db3c cfd5 65bc c4ef 80bb 1b7c 3abc
00000350: 79a4 acbc 49ae 3fbc 3c9e 20bc ff2e 1a3c
00000360: ad55 ad3b 9996 2bbd 7283 e53b 8453 88bc
00000370: 12e5 cdbb 5b80 94bc 0fc7 30bb f337 13bd
00000380: f98e 0cbd 0776 2b3b eef3 b8bb 62ac b13c
00000390: eef4 1ebc d86e e9bc 92a2 85bc be6d a73b
000003a0: 255e 43bc 6e6f 593d 3d0e a83c 3f52 0abc
000003b0: ac4d 143d e942 67bc db07 ecbb 85c7 8dbc
000003c0: 0074 343c ddc0 c0bb 1cf8 3abc 96e3 103d
000003d0: 50d7 823c 7654 843b 1939 18bc c205 cb3b
000003e0: 30ae b33c 099b 17bd 5d93 953b 1b81 6cbc
000003f0: 5dab a13c 8f2b 033c e216 bebc 9377 dd3b
